tests/data/epoch_1.pth (torch, 505763 bytes, 20 tensors)

backbone.features.0.weight f4 [6, 1, 5, 5]
000000 45 b3 39 3e 00 d1 8d 3c 13 91 17 be 9a 3f 0b 3c
       0.18134792 0.017311573 -0.14801435 0.0084990505
000010 1e c4 4a be 6b 68 fd 3d c1 89 fa bd 5c 17 46 be
       -0.19801375 0.12373432 -0.12233306 -0.19344848
000020 28 2a 4b bd 5b 6d 8f bb 86 54 cb 3d 50 f7 1a 3e
       -0.04960075 -0.00437705 0.09928231 0.15133405
000030 a0 45 00 be d8 c6 14 3e 62 88 2d be 2f e1 fe 3d
       -0.1252656 0.14528978 -0.16946557 0.12445294
000040 d9 76 00 3e 44 57 a9 bd d4 fd 32 be 61 e3 27 be
       0.12545337 -0.08268598 -0.1747964 -0.16395332
000050 0b 1e 3a 3e 9d f4 45 bd c1 85 3f 3e c2 3c 90 3c
       0.18175523 -0.048328985 0.18703367 0.017607097
000060 04 43 4b be 87 dd 1d be 22 9f 9e bc fd cf 24 3e
       -0.19849783 -0.15416537 -0.01936299 0.16094966
000070 4e b6 3f 3e 6c 0d 89 bd 59 3c 31 3e 70 d2 aa bd
       0.18721887 -0.06692013 0.17308177 -0.08340919
000080 4d a3 ad 3c 5e 15 6d 3e 7c b7 6f 3e 74 93 02 3e
       0.021196032 0.23152682 0.23409837 0.12751561
000090 7f f2 12 3e d8 5c 31 3d 3a ef 2a 3e ba 8c 37 bd
       0.14350317 0.043301433 0.1669282 -0.04481194
0000a0 fe 80 ed 3d 1b 6b 53 3e 3a f9 a4 bd 86 8c ae 3d
       0.11596869 0.20646326 -0.08055349 0.085228965
0000b0 e7 2c 58 3e c8 99 9c bb 43 46 ae bd 61 f4 36 3e
       0.21110879 -0.0047790743 -0.08509495 0.1786666
0000c0 cc c4 3f bd eb 0f d7 3d 71 a0 00 3e e3 c0 e0 bd
       -0.04681854 0.10501083 0.12561204 -0.1097429
0000d0 f4 d6 0f 3e 8a 69 05 be d0 71 0a 3e 31 95 d5 3d
       0.14046842 -0.13028541 0.13519979 0.10428847
0000e0 1a 28 57 3e 53 b1 3c bd 1c 36 9d 3d 87 bf 0a bd
       0.21011391 -0.046067547 0.07676336 -0.03387406
0000f0 21 bc 38 bd 29 c3 ea bd 90 26 f4 3d 20 b5 29 3e
       -0.04510129 -0.11463005 0.11921418 0.16573
000100 cd 7f 94 bd 8d b0 6d 3c ba cd 2a 3e ce 52 16 3d
       -0.072509386 0.014507425 0.16680041 0.036700062
000110 6b 92 ce 3d 49 62 e1 3a be 6d fd 3d 6d 1b ef 3d
       0.10086521 0.0017195429 0.12374447 0.11675153
000120 8e dc f7 3d 8e c7 6b 3e df 8e 2f 3e 49 0a 07 3e
       0.12102614 0.23025343 0.17144345 0.13187517
000130 e1 6b c2 bd b8 30 e2 bd c3 d5 92 3c bf e7 66 3e
       -0.094932325 -0.110444486 0.017924195 0.22549342
000140 41 5a eb bd da ad f3 bd 49 66 07 3e 82 0b f6 3d
       -0.11491824 -0.11898394 0.13222612 0.12013914
000150 9e 61 0d 3e fb d6 59 be cd 69 f7 3d 41 0b 29 3a
       0.13806769 -0.21273415 0.12080727 0.00064485153
000160 28 fe 76 bd 7e ce 01 3e f0 1b e5 bd a8 90 48 be
       -0.060300976 0.12676427 -0.11186969 -0.19586432
000170 19 a6 32 3d 99 6a d5 bd 91 9a 77 bd 9b 54 0a be
       0.043615434 -0.104207225 -0.06045014 -0.13508837
000180 b0 87 de bb 7b 2b 27 be 98 83 13 bd 28 a8 23 be
       -0.0067910776 -0.1632518 -0.03601417 -0.15982115
000190 a7 52 7b be 8b 93 38 bd c3 b0 8b be 29 28 84 bd
       -0.24543248 -0.045062583 -0.27283296 -0.064529724
0001a0 b2 b5 4e bd 37 cf b2 bc 6f 10 4d be 06 cb 8b be
       -0.050466247 -0.021827323 -0.200258 -0.27303332
0001b0 81 63 68 3c ac ef d6 3c 6e 4a d5 3c 63 8c 7a be
       0.01418388 0.026237331 0.026036467 -0.24467616
0001c0 4c 12 e9 3d 8b 2a 08 be 91 47 07 3e d1 db 22 bd
       0.11380443 -0.13297479 0.13210894 -0.039760415
0001d0 83 37 4f be 2d 24 c7 3d de a0 67 be 58 aa 49 be
       -0.2023602 0.09723697 -0.2261996 -0.19693887
0001e0 f7 4c ac bc 7f 4c 59 bd 1b a5 77 bd f4 d4 3d 3e
       -0.021032793 -0.053051468 -0.06046019 0.18538266
0001f0 95 d4 e6 3d 4f 8a dc 3d bf 7a bb bc c2 98 ff bd
       0.112710156 0.10768568 -0.022885678 -0.12480308
000200 24 79 ed 3d cb a3 e0 3d 90 f8 4e 3e b3 9a 82 3c
       0.11595371 0.10968741 0.20212007 0.015942907
000210 07 38 46 3d ef 70 f1 3d f7 3f da bd 2b 1e a9 3d
       0.048393276 0.117891185 -0.106567316 0.08257707
000220 04 75 16 3e 32 bf b3 bd a6 c3 f5 bd dd 8e 87 3d
       0.14693075 -0.08776702 -0.120002076 0.06619046
000230 de 30 96 bd af 5a 52 be 72 8c 65 be d5 45 62 bd
       -0.073335394 -0.20542406 -0.22416857 -0.05524238
000240 21 c8 5f be 1f 17 be 3d aa db ee 3d 3b 2d b5 3d
       -0.21853687 0.09281754 0.11662991 0.08846518
000250 d5 c7 2f 3d 3e a8 59 be
       0.042915184 -0.21255586

backbone.features.0.bias f4 [6]
000000 8a 16 4c bd 48 a1 6a be 93 20 3a be c9 58 01 be
       -0.049826182 -0.22913086 -0.18176489 -0.12631525
000010 72 15 c8 3a 2c 7c d2 bc
       0.001526518 -0.025693975

backbone.features.3.weight f4 [16, 6, 5, 5]
000000 f4 41 33 3c 46 14 99 3c 39 fd fd 3c 2f 35 8a bc
       0.010941017 0.018686425 0.031004535 -0.016871063
000010 fb c0 81 3d 15 51 9e 3d 0d 6f f4 bc 53 66 09 ba
       0.06335636 0.07730309 -0.02983811 -0.0005241383
000020 89 af 2c bd 5f bf c0 bc 5d fb a3 3d 32 b1 c0 3b
       -0.04215959 -0.023528753 0.08006928 0.0058804983
000030 8c 17 8c bc 0b bc 47 3d 6f 58 af bc 3f cb f6 3c
       -0.017101072 0.048763316 -0.021404473 0.030126212
000040 8d 0b 97 3c 37 78 bd bd a1 f6 78 3c 61 3b 95 3d
       0.018438125 -0.09251445 0.01519552 0.07286716
000050 8c 79 4d bd 53 c2 84 bd a4 3c 3f 3c 83 0c 89 bd
       -0.050164744 -0.06482377 0.011672173 -0.066918395
000060 13 38 03 bd e4 a9 51 bd 66 d8 a6 bc 42 a4 80 3d
       -0.0320359 -0.05118741 -0.020366859 0.0628133
000070 fa fe 1a 3d 6d 3d bc 3c 9a 24 61 3c d7 d3 ce 3d
       0.03784082 0.022978509 0.013741637 0.10098999
000080 28 71 1a 3d 27 1c ae 3d aa 5e d8 3d 66 25 8d bd
       0.03770557 0.085014634 0.10564931 -0.06891899
000090 2d 3a 88 3d 40 1a 3a bd 64 1a b2 3d 6b a5 bc 3d
       0.06651721 -0.04543519 0.0869644 0.092112385
0000a0 b0 fc 44 bc 56 a5 31 3d e5 34 85 bd 28 13 88 3d
       -0.012023136 0.043370567 -0.065042295 0.06644279
0000b0 7d 35 30 3d 95 ab ab bc 43 a9 b1 bd a2 3d 02 bc
       0.04301976 -0.02095584 -0.08674862 -0.007949265
0000c0 3a ba 10 bd b6 5b 3e 3d a8 b2 71 bc 37 f9 02 bd
       -0.03533385 0.04647418 -0.014752068 -0.03197595
0000d0 9a 53 18 bd 45 87 80 bc 45 c2 d2 3d a1 57 41 bc
       -0.037189104 -0.015689502 0.1029096 -0.0118006775
0000e0 a1 46 7d 3d ff 8e bf 3a ce e7 9a 3c 1c 04 64 bc
       0.061834935 0.001461476 0.018909361 -0.013916995
0000f0 f6 de 8c 3d 28 c5 19 3b d5 d6 e0 3c 10 fe b0 3d
       0.06878464 0.0023463462 0.02744619 0.086422086
000100 1d de 1a 3d c8 29 4c 3d b2 0b 25 3b 34 6f 9d bd
       0.03780948 0.049844533 0.0025183973 -0.07687226
000110 43 a5 ec bc 25 0b 11 3c 31 cb 24 bb 27 37 b0 bd
       -0.028887397 0.008852755 -0.0025145526 -0.086042695
000120 0b e0 90 bd a8 b4 80 bd cc 60 95 bd 91 ec be bd
       -0.07073983 -0.062844574 -0.07293853 -0.09322465
000130 f1 f1 9f bd 50 0b b1 bd 73 43 ac bd b5 e9 00 3d
       -0.078098185 -0.08644736 -0.084113024 0.03147288
000140 a3 e9 a2 bd cd bd 3e 3d d0 ad 5e 3d 5e fc cc 3c
       -0.07954719 0.046567727 0.05436498 0.025022682
000150 82 d4 7d 3d 34 d7 ac 3d ce c1 bd 3d 6d 4e 2b bc
       0.06197024 0.08439484 0.09265481 -0.01045571
000160 ce b9 01 3d 7c cb 03 bd 62 2d cc 3c b7 a5 b4 3d
       0.031671338 -0.03217648 0.024923984 0.0882067
000170 a1 f0 26 3d 16 f9 d6 bc a7 74 8a bc 79 d0 47 3d
       0.040756825 -0.02624182 -0.016901327 0.0487828
000180 dc a5 8d 3d ec 6c 7b 3d 16 d2 bc 3c 94 5b bc 3d
       0.06916401 0.061383173 0.023049396 0.09197155
000190 64 6e 9f bd c8 de 2b 3d 04 93 90 bd f5 09 46 3c
       -0.07784727 0.041960508 -0.07059291 0.012087335
0001a0 7c 88 b7 bd 2a ff a0 3c b7 29 91 bd 0c bb c0 bd
       -0.08961579 0.019652922 -0.070880346 -0.09410676
0001b0 63 93 cb bd ca b9 d7 bc 4f 71 52 bd 4b 9b b4 bd
       -0.09940221 -0.026333708 -0.05137759 -0.08818682
0001c0 66 cf d4 bc c6 7e 09 bd 12 4b 65 bd ed e8 03 3c
       -0.025977802 -0.033568166 -0.055979796 0.008051139
0001d0 8f 25 30 3d 0c b3 99 3b 10 dd 8a bd 13 94 41 bd
       0.04300457 0.0046905335 -0.067804456 -0.047260355
0001e0 b3 5c fb bc 8c 6e 91 3d c6 f6 bd 3c fb a8 aa 3d
       -0.03068385 0.07101163 0.02318896 0.08333012
0001f0 fe dc 15 3c 8c a5 0d bd d9 71 36 bc ec 3c 42 bc
       0.009146927 -0.034581706 -0.011135542 -0.011855345
000200 d1 ff 2b 3d f2 1b 73 3c 32 ef 05 3d 19 c7 a6 3d
       0.041992012 0.014838206 0.032698818 0.081434436
000210 4e 2e 80 3d 0f fe 02 3d 0f 19 98 bb bc 09 4d bd
       0.06258832 0.03198057 -0.004641659 -0.05005811
000220 eb 84 1e 3d a9 09 40 bd 9e fb 30 3d d5 ac 9e 3d
       0.03870098 -0.046884213 0.04320871 0.07747809
000230 df ea 67 bc d1 85 94 bc d6 24 8a 3c 64 d6 43 bc
       -0.014155119 -0.018130215 0.016863268 -0.01195297
000240 19 8a 0d bd 24 06 b8 ba 1e 84 84 3d 75 9e 8b 3d
       -0.03455553 -0.0014039916 0.06470512 0.06817333
000250 b4 a6 16 3d 73 0f 87 3c 45 44 a3 bd e5 1d 8f bd
       0.036780074 0.016486859 -0.07972006 -0.06988124
000260 71 a4 8d bd 2b 2e df 3c 62 88 61 3d b5 70 99 bd
       -0.0691613 0.027243694 0.055061705 -0.074922
000270 13 f6 61 bc 66 59 bf bd 3d da 39 bd e8 04 ba 3d
       -0.013791579 -0.09343223 -0.045374144 0.09082967
000280 b2 a4 fb 3c e6 7e b4 bd 57 48 a2 bd 99 c4 91 bd
       0.030718181 -0.088132665 -0.07923954 -0.07117576
000290 e7 d6 73 3d 6e 8e 1a ba 19 9c 46 3d 5a c7 08 bd
       0.05953112 -0.00058958575 0.04848871 -0.03339324
0002a0 82 d3 4c bd f3 77 26 3b 26 bb 90 bd 69 c6 78 bd
       -0.050006397 0.0025401085 -0.07066946 -0.060736094
0002b0 44 0d 8d 3d 8e e8 8d 3d 50 87 86 3d 36 8f a6 3d
       0.06887296 0.06929122 0.065687776 0.08132784
0002c0 37 08 a0 3d 28 63 79 bd 47 c4 97 3d 84 80 ad 3b
       0.07814067 -0.06088558 0.07410484 0.0052948613
0002d0 5a 2e a4 3d 91 cc 65 3d 48 3b 88 bc 3c a0 47 3d
       0.08016653 0.056103293 -0.01662983 0.048736796
0002e0 a3 ee 01 bb d7 c6 f2 b5 44 b1 92 3d 73 ae 29 3d
       -0.0019826076 -1.8088275e-06 0.07162717 0.041426133
0002f0 9d 62 41 3d aa a5 c4 3d 5a 48 40 ba 59 c5 e3 bb
       0.047213186 0.096019104 -0.0007335 -0.006951016
000300 f3 6a 59 3d fd 70 ed bc 1c d4 d5 bb b7 f5 a2 bd
       0.05308051 -0.028984541 -0.0065255295 -0.07957023
000310 32 7d 29 bd 58 b3 85 3c 61 81 5d bd ae fe a9 3b
       -0.04137916 0.01632087 -0.054078463 0.005187831
000320 3a 4d 45 bd 38 89 33 3d d3 f8 78 3d e8 cc cf 3d
       -0.048169352 0.043832034 0.060784172 0.10146505
000330 7b ac 05 bd 6a e2 5d 3d b4 01 24 bd cb 24 af 3c
       -0.032635193 0.054171003 -0.040040687 0.021379849
000340 49 38 b4 3d 13 92 f7 bc d8 1b 93 3d ad 41 d4 bc
       0.08799798 -0.03022102 0.07183045 -0.025910223
000350 69 fe cb 3d df d4 30 3c 80 32 a1 3d 48 b3 66 bd
       0.09960634 0.01079294 0.0787096 -0.05632332
000360 5b 46 8a 3d 23 11 5f bd eb 32 e1 bc df a3 b2 3c
       0.067517005 -0.054459702 -0.0274901 0.021806655
000370 56 b7 94 bd 30 44 bb bc 75 ce e1 bc 4a e8 ac bc
       -0.07261531 -0.022859663 -0.027564267 -0.021106858
000380 57 93 19 3b 2a cd 03 3c a9 0a 12 bd d1 fd 8e bd
       0.0023433769 0.00804452 -0.035654698 -0.069820054
000390 40 03 a1 3b 25 94 13 3d 37 8d 9a 3c 63 f4 57 3d
       0.0049137175 0.036029954 0.018866165 0.0527233
0003a0 e0 93 89 3d cd 03 72 3d 7b 14 4e bc 1c b0 cf 3b
       0.06717658 0.059085656 -0.012578125 0.0063381325
0003b0 63 27 83 bd 8b 33 bb bc 3a 08 99 bc 0a 54 41 bd
       -0.06403997 -0.022851726 -0.01868068 -0.047199287
0003c0 34 cc 1c bd 96 11 92 3d 1a 5c 04 3d 26 da 8e bc
       -0.03828068 0.071322605 0.032314397 -0.017438006
0003d0 6d 64 a7 bd 25 f1 b2 3b 80 23 45 bd 1c cc 13 3d
       -0.081734516 0.0054608756 -0.04812956 0.036083326
0003e0 2e c6 40 3d 82 70 95 3d 62 17 cb bb 78 f9 67 bd
       0.047064 0.0729685 -0.006197856 -0.056634396
0003f0 c9 85 99 bd 99 8c b6 3b 21 56 1e bd fb d6 82 bd
       -0.074962206 0.0055709598 -0.038656358 -0.063886605

backbone.features.3.bias f4 [16]
000000 95 18 8b bd de 6e 82 bd b6 e0 0e 3d b8 e9 5a bd
       -0.06791798 -0.063688025 0.03488227 -0.053445548
000010 63 59 fc bc 0d e9 6b 3d d1 22 3f 3c f4 59 44 bd
       -0.030804342 0.0575953 0.011666016 -0.04793735
000020 6a 04 b3 3c 77 77 18 3c 4a b7 3e bd 37 3f af 3d
       0.02185269 0.009305826 -0.046561517 0.08556979
000030 ac 9e d7 b9 4b c7 26 bd c4 bf 4f 39 08 77 94 bd
       -0.00041126215 -0.040717404 0.00019812497 -0.07249266

backbone.features.6.weight f4 [120, 16, 5, 5]
000000 32 9e d7 b8 ed d1 26 bc 39 c9 43 3c 13 5b ec bc
       -0.00010281465 -0.010181886 0.011949831 -0.028852021
000010 21 40 59 bb 4c 56 27 bd 86 82 17 bd 32 d9 f5 bb
       -0.0033149796 -0.040853783 -0.03698971 -0.0075026983
000020 9b 1f 5b bd e8 ec 5c bd d7 93 af bc 90 16 1d bd
       -0.05349694 -0.05393687 -0.0214328 -0.038351595
000030 ec 0b 12 bc 5b 58 be bc b1 10 e6 bc 19 57 73 bc
       -0.008913975 -0.02323549 -0.028084131 -0.014852309
000040 d0 b7 9e bc 74 6d f8 3c f8 de dd b9 fe 69 05 bc
       -0.019374758 0.030325629 -0.0004231853 -0.008142946
000050 a2 7b bc 3c ad bc 7a 3c 03 5c e2 bb 03 08 0e 3d
       0.023008171 0.015303773 -0.0069079413 0.03467561
000060 3a fa 8e 3c 89 05 b3 3c d0 c0 37 3b 58 ab 3d bd
       0.017453302 0.021853225 0.002803851 -0.046305984
000070 36 0f 04 bd a1 d0 df 3b cf c5 17 bc 51 fc c4 bc
       -0.03224107 0.0068302904 -0.00926347 -0.024046095
000080 c0 02 d8 bc d7 de 11 bd 47 b1 e7 3c e3 12 f9 3c
       -0.026368499 -0.035612907 0.028282775 0.030404514
000090 b0 57 a2 bc e5 76 8f 3c b1 0c af 3c ed 9e ee bc
       -0.019817203 0.017512748 0.021368356 -0.029128516
0000a0 fb 66 58 bc c8 23 1a bd da 22 a7 3c b7 32 b2 3b
       -0.013208146 -0.03763178 0.02040236 0.0054381746
0000b0 3f aa ae bc 54 03 86 3c 12 99 42 bd 9e da 49 3d
       -0.021321414 0.016359009 -0.04750926 0.049280755
0000c0 0e 54 34 3d 68 df 3d 3a 10 fb 4d 3d 61 c3 19 bc
       0.044025473 0.0007243068 0.05028826 -0.009384961
0000d0 9f 4a 1b 3d 6a c2 a8 bc 9e 76 fd 3c 69 65 12 bd
       0.03791296 -0.020600516 0.03094035 -0.035741244
0000e0 ab 8d 49 bd 8b 5e 6a bc 77 f0 aa 3c 6c 72 08 bd
       -0.04920737 -0.014304767 0.020866616 -0.033312246
0000f0 81 6d a1 3c 84 fc d3 bb 28 81 03 bd 91 a3 c1 3c
       0.019705536 -0.006469311 -0.032105595 0.023637565
000100 6c d2 e0 bc 67 b2 ad 3c d8 76 2d bc 9a 9b 1f 3d
       -0.027444087 0.021203233 -0.010587417 0.038966753
000110 da 86 ab bc ee 57 96 bc 41 ec 5f bd b0 ba 5d bb
       -0.020938326 -0.018352475 -0.05466867 -0.0033833198
000120 41 53 e3 bc d4 6d d0 bc e8 ab bb 3b a4 21 ec bc
       -0.02774966 -0.025442995 0.00572728 -0.028824635
000130 84 77 46 bc 70 c4 1e 3d e3 80 0d bc 14 a0 45 bd
       -0.012113456 0.038761556 -0.008636686 -0.048248366
000140 c4 4b 1b bd 12 bf 02 bc 17 28 cc 3c b4 27 29 bb
       -0.037914053 -0.007980125 0.02492146 -0.0025811018
000150 51 dd 43 bd 29 1a 4c 3d 3d cf cc 3c 1d d5 d7 3c
       -0.047818486 0.049829636 0.025001163 0.026346738
000160 72 09 0a 3d 50 1f 2d 3d 7a 27 23 3c 8e 95 ee 3c
       0.033700414 0.04226619 0.009958142 0.029124048
000170 e9 bc c6 bc 00 34 e4 3c 60 17 25 3b 59 bf 0f bc
       -0.024260001 0.027856827 0.0025190935 -0.008773648
000180 10 b1 00 3d 8d d8 a6 bc e6 7f 30 3d 6e e9 45 3d
       0.03141886 -0.020366931 0.043090723 0.04831832
000190 00 ca 9a 3b 28 36 27 bc f6 71 16 3d 00 73 92 3c
       0.0047237873 -0.010205783 0.036729775 0.017877102
0001a0 ea c0 b7 3c 92 e2 41 3d fe 5c 1d bd 24 ce f6 bc
       0.022430856 0.047335215 -0.038418762 -0.030127592
0001b0 98 a0 19 3c 6a db b9 bc 01 12 f9 bc 97 2f c8 3c
       0.009376667 -0.022687633 -0.030404093 0.024436755
0001c0 3a 71 37 bd 04 24 d4 ba 20 26 2b 3d ff ba d7 3c
       -0.044785716 -0.001618505 0.041784406 0.026334284
0001d0 3f 3e ee 3c c2 92 db 3c 2a ef 67 bc 23 01 18 bd
       0.029082416 0.026803378 -0.014156142 -0.03711046
0001e0 01 e5 d6 3c 53 e5 06 3d db 4b 02 bd d1 2c a8 3a
       0.026232244 0.032933544 -0.031810623 0.0012830739
0001f0 69 98 81 3c 32 bb d2 bc 97 42 be ba 3c 60 f2 3b
       0.015819745 -0.025724027 -0.0014515695 0.007396726
000200 6f db 17 3c a7 b8 a5 3c ab f6 ad bc 52 ff 2d bb
       0.009268626 0.02022965 -0.021235785 -0.0026549888
000210 cb 1a 30 bd 06 7a b1 bc 32 67 2b bd c8 dc bd 3c
       -0.0429943 -0.02166463 -0.04184646 0.023176566
000220 73 9a 59 3d 05 bb d3 3c 3e d8 f6 bb b7 2f 9a bc
       0.05312581 0.025846014 -0.0075331023 -0.01882158
000230 3d db 08 bd fe b8 0f 3d ac 92 e3 bc ce bf 40 bc
       -0.033412207 0.03508853 -0.0277799 -0.01176448
000240 bd cc 3a 3d fd 07 18 3c 84 78 1e bd f4 2d c9 3c
       0.04560541 0.009279248 -0.03868915 0.024558045
000250 04 bc c8 bb c7 ef 26 bc 89 1e d7 bc 41 e9 5e 3c
       -0.006125929 -0.010189003 -0.026259677 0.013605417
000260 ba 51 83 3b 2a 9a 38 bd 66 f1 ea 3c 60 dc 6c 3c
       0.0040075453 -0.045068897 0.02867956 0.014456838
000270 9b c1 0b 3c 9d b6 e2 3c d6 4d c9 3c d0 23 13 3d
       0.008530046 0.027674967 0.024573248 0.035922825
000280 f0 45 59 3d 37 32 d2 3c 95 71 4d 3d dc 05 e8 bb
       0.053045213 0.02565871 0.05015715 -0.0070807766
000290 ab c7 86 bb 5a 62 3a bd d0 ab b6 bc 2a ed 12 bd
       -0.0041131577 -0.04550395 -0.022298723 -0.03587071
0002a0 48 8d 20 3c a3 50 31 3c 00 08 09 bd b0 35 03 bd
       0.009799309 0.010822448 -0.033454895 -0.032033622
0002b0 f2 32 8d 3b 07 46 5d 3d 08 15 0e 3d c7 54 af 3c
       0.0043090517 0.05402186 0.034688026 0.02140273
0002c0 40 24 83 3c 2b 50 2b 3d 76 28 2d 3d d9 52 09 bd
       0.016008496 0.0418245 0.042274915 -0.033526275
0002d0 36 31 9c 3c 7a 5a 97 bc e0 d1 6d 3d 2d 72 ee bb
       0.019066434 -0.01847576 0.05806148 -0.0072767944
0002e0 9e a1 ca bc a5 68 39 3c c9 29 d2 3c 99 59 ae bc
       -0.024735268 0.011316453 0.02565469 -0.021282958
0002f0 5c 74 1e bd 81 5b 2a 3d 81 2d 44 bb 55 ae 25 3d
       -0.038685188 0.04159117 -0.002993435 0.04044946
000300 a4 2e 2e 3d 8e a6 20 3a aa c2 02 3d aa d2 0b 3d
       0.04252495 0.0006128334 0.031923927 0.03413645
000310 79 39 8a bb 74 87 cf bb 1d 7a b1 3c a4 4c 0a 3d
       -0.004218277 -0.006333286 0.021664673 0.033764496
000320 5b 1a 68 bc 77 e1 0c bb 11 ef 1d bd c8 a4 86 bb
       -0.01416644 -0.0021496692 -0.03855807 -0.004108999
000330 fe 44 51 bd eb 1c 3e 3c b7 df 39 3d 59 18 c9 3c
       -0.051091187 0.011603574 0.045379367 0.024547743
000340 5a fe 6c bc d1 66 4e bc f2 40 0b 3d 67 d4 cf bc
       -0.014464939 -0.0125977555 0.033997484 -0.025369836
000350 e0 ea 4b 3d ce 14 79 3d ed 67 3e 3c 15 26 21 bc
       0.04978454 0.060810857 0.0116214575 -0.00983574
000360 63 36 a3 bc 45 d3 b9 3c 94 f7 76 3d bf 12 41 3d
       -0.019923395 0.022683749 0.060294703 0.04713702
000370 6c ba 04 bd a7 5c 8f 3c b1 b4 3f 3d 1e 9c 05 bd
       -0.03240435 0.017500235 0.04680318 -0.032619588
000380 d7 16 e9 3c 04 6c ba 3c c9 01 3a 3d 11 60 02 bd
       0.028453274 0.022756584 0.04541186 -0.031829897
000390 b7 75 22 3c ef 42 cd 3c 29 53 62 bb c1 c5 fb 3c
       0.009915761 0.02505633 -0.003453443 0.030733945
0003a0 55 7d 19 3b 3b 82 e6 3b e7 fc 5a bd 33 2e 3f bd
       0.002342065 0.0070345677 -0.053463843 -0.04667492
0003b0 1a ac 94 3c 1e 11 04 3d 73 89 56 3b 0f c5 a9 3b
       0.01814847 0.032242887 0.0032735735 0.005180962
0003c0 2a 05 4d ba 67 0f 0c bc 3f bb 24 3c 63 9e ca 3c
       -0.0007820899 -0.008548594 0.010054409 0.024733728
0003d0 92 7c 38 bd ae 39 66 3c 08 7e 5a bc 1a 5d 1c 3d
       -0.045040675 0.014051838 -0.013335712 0.038174726
0003e0 3e 4a a3 bc c5 bd 06 bd 50 cf 91 3c cd d7 e0 bc
       -0.019932862 -0.032895822 0.01779905 -0.027446652
0003f0 8e dc 9b 3a db 7a c8 bc c1 6f 22 bd ec 67 54 bc
       0.0011891292 -0.024472645 -0.039657358 -0.01296423

backbone.features.6.bias f4 [120]
000000 6b cd f5 bc e0 1e 78 3c a7 bb c3 3b 6b 22 1f bd
       -0.030005177 0.01514408 0.0059732976 -0.038851183
000010 f4 e6 10 3d 54 28 f5 3b c9 27 14 bc 14 fb 48 3d
       0.035376504 0.007481614 -0.009042689 0.04906757
000020 b1 07 a3 bc 06 04 c9 bc 42 22 36 3a bc 67 62 3c
       -0.019901128 -0.024538051 0.0006947854 0.0138186775
000030 4d 98 07 3d a0 1c 06 bd e0 13 44 bc 35 59 9f 3c
       0.03310423 -0.032742143 -0.011967629 0.019451717
000040 7b ce 80 3c eb 60 05 bd fc ea 5a bd 9a da 31 bd
       0.015723458 -0.03256313 -0.053446755 -0.043421365
000050 6a bd 35 bd aa ff 88 3c 4b df 37 bd da f2 4b 3d
       -0.044370092 0.016723473 -0.044890683 0.04979215
000060 61 41 d4 3b 22 52 4b bd cb 3c 4d 3d 34 c0 be 3c
       0.0064775203 -0.049638875 0.050106805 0.023285009
000070 d3 be 21 bb 98 07 7f 3c f7 db d2 bc 7c df 92 3c
       -0.002468039 0.015565775 -0.025739653 0.017928831
000080 49 c3 fe bb 81 56 09 3b 5a f1 96 3b 4f c0 19 bc
       -0.0077747446 0.0020956101 0.004606408 -0.009384229
000090 6b 8d 9a 3c 9f 1d f0 3b 5f 7d 00 bd 37 9a f4 3b
       0.018866261 0.00732775 -0.031369563 0.007464673
0000a0 e9 20 42 bd 28 90 44 bd 81 45 48 bd f2 9c a5 3c
       -0.047394667 -0.04798904 -0.04889441 0.020216439
0000b0 b8 2e 32 bc 2d 3e d2 3c 6d 43 b7 3c cf 87 02 bd
       -0.010875396 0.025664413 0.022371018 -0.0318678
0000c0 bd a0 25 3d e3 87 bf 3c 3a 0f 0d bc 17 53 33 bc
       0.040436495 0.023380226 -0.008609587 -0.010945103
0000d0 fc 11 e4 3c 5b 81 04 3c f5 7b 17 bc 3a 21 e6 3c
       0.027840607 0.008087481 -0.009245862 0.028092016
0000e0 34 22 01 bd 47 04 b3 3c cf 9d 6d bc 0f 9d 1b 3b
       -0.03152676 0.021852626 -0.0145029565 0.0023744737
0000f0 2c 52 02 bd 4c ec 1e 3d 7c 74 17 3a 4b 1f df bc
       -0.031816646 0.03879957 0.00057775504 -0.027236601
000100 18 c3 ac bc 55 cd 6f bc 95 b1 42 bd 19 fd b7 3c
       -0.021089122 -0.014636357 -0.047532637 0.022459554
000110 da ac 7e bc 35 74 8f bc c6 d9 5c bd 80 d6 08 bd
       -0.015544141 -0.017511467 -0.053918622 -0.03340769
000120 f5 b6 0a bd e1 8f 22 bd 0f ff 21 3d b5 6f 3f 3c
       -0.033865888 -0.039687995 0.039549883 0.011684348
000130 c9 e6 30 3d dc 3c 2e bd b4 af 3a bd c2 60 0f bd
       0.043188844 -0.04253851 -0.04557772 -0.035004385
000140 bf 58 1c bd d9 74 87 bc 1f d7 67 3d a5 d1 2d 3d
       -0.038170572 -0.01653521 0.05660164 0.04243626
000150 76 22 3c bd 6c 6f c2 3c c9 df c1 3c 8a 31 25 3d
       -0.045931302 0.02373477 0.02366628 0.040330447
000160 05 22 9e bc c0 27 8e 3c 7a 26 41 3c 97 89 04 3d
       -0.019303331 0.017352939 0.011788959 0.03235778
000170 29 12 c2 3c e3 1b d9 ba a8 ab 80 ba c5 2b e2 3c
       0.0236903 -0.0016564097 -0.0009816783 0.027608762
000180 80 81 40 bd 16 f2 aa 3c 1a 16 55 bc 5b 29 3c 3d
       -0.0469985 0.020867389 -0.013005758 0.045937877
000190 e6 d7 1c 3c 6f 45 bb ba 9f a0 5b bb 44 be 41 3d
       0.009572959 -0.0014287661 -0.0033512486 0.047300592
0001a0 a8 2c c0 38 b9 df 34 bd 46 00 23 bb 73 ba 3e bd
       9.163591e-05 -0.04415867 -0.002487199 -0.04656453
0001b0 90 c7 35 3c 88 92 bf ba 4c 97 01 bd 96 b0 4e bd
       0.011094943 -0.0014615813 -0.03163843 -0.050461374
0001c0 9e c8 62 3c 1e 42 ae bb 5f 52 4a b9 d8 ae 4f bc
       0.013841776 -0.0053179404 -0.00019294907 -0.012675963
0001d0 98 46 1c bd bd ef b6 bb 32 bc 07 3c d9 69 13 3b
       -0.03815326 -0.0055827782 0.008284615 0.002249351

backbone.classifier.0.weight f4 [84, 120]
000000 bc ba f7 bc 69 7d 44 3d f4 56 dd 3c 03 cd a6 bd
       -0.03024041 0.047971163 0.027019002 -0.08144572
000010 4e 8a 96 bd 74 47 5c bd 3d 75 9c bb 2b 1e 7e 3d
       -0.07350598 -0.05377908 -0.004774718 0.06204049
000020 27 97 61 3d 3d 46 3e bc e4 40 b6 bd 38 ae 0b 3c
       0.05507579 -0.011613426 -0.08899096 0.008525424
000030 0c 1d 92 3d 75 c0 a3 3d e6 b7 4f 3d 57 0b 77 bd
       0.071344465 0.07995693 0.05071249 -0.06031355
000040 65 fa b0 3d 27 af 34 bd 7b be 9c bd 32 91 9d 3c
       0.08641509 -0.04411235 -0.07653519 0.019234274
000050 5a bb ce 3c 1f 25 7b bd eb 25 2f bd 93 24 89 bd
       0.02523582 -0.0613147 -0.04276077 -0.06696429
000060 75 77 c2 bd 19 cd b2 bb b6 4c b5 3d 7f 39 95 bd
       -0.09495441 -0.0054565785 0.08852522 -0.07286357
000070 2a ed 99 3c f5 44 cd bc 6d 15 84 bd fd b1 c2 bd
       0.018789846 -0.025057295 -0.06449399 -0.09506605
000080 ea 59 97 3d ff 33 61 3d a6 75 9e 3c a1 ec cf 3c
       0.073901966 0.054981228 0.019343209 0.025381388
000090 6f 62 ac 3d e5 86 91 3d c5 dd 7d bd a4 f6 b1 bc
       0.08417212 0.07105807 -0.061979074 -0.021724053
0000a0 22 6e a9 bd 20 19 b4 3d 08 46 8c 3c fa 78 ac 3c
       -0.08272959 0.08793855 0.017123237 0.02105378
0000b0 df 2d 2c bd 2a 03 71 3c 92 18 8a 3c 93 f0 11 3d
       -0.042035934 0.014710227 0.01685742 0.03562982
0000c0 2d 1e 78 3d 52 c0 f6 3c 3a a8 5d 3d fc 00 c0 3c
       0.060575653 0.030121002 0.05411551 0.02343797
0000d0 41 1f 4c 3d fc 69 0a 3d a9 3c c9 3c 62 f3 d3 bc
       0.049834494 0.03379248 0.024565058 -0.02587289
0000e0 b9 a9 ce bd 27 84 85 bc 1d c4 89 3d 23 41 4d 3d
       -0.10090966 -0.016298367 0.06726859 0.050110947
0000f0 fd 1d ab 3b 14 25 a1 3d e3 55 9a 3d 29 48 ee 3b
       0.0052220807 0.078684 0.07535913 0.0072717858
000100 c3 74 5e bd 57 b0 e7 3c 62 68 ac 3c 1a 1f 4b bd
       -0.05431057 0.028282328 0.021045867 -0.049590208
000110 f9 f0 ee 3b 7b fc 4a bc 15 16 0a 3d f2 ec ab bd
       0.00729191 -0.012389298 0.033712465 -0.08394803
000120 f2 4c 28 bc 35 8c 0f 3d a2 fc 8e bc 70 36 55 bd
       -0.010272251 0.03504582 -0.01745445 -0.05205387
000130 82 10 30 ba 85 be 90 bd 1b 9e 35 bd d2 db ab bc
       -0.0006716327 -0.07067589 -0.044340234 -0.020978842
000140 58 57 8c bd 23 e7 68 3d 1a e0 67 3a ce 99 81 bd
       -0.06852597 0.056861054 0.00088453444 -0.06328164
000150 6b df a6 3d 80 be 7b bd ed 17 11 bd d1 a2 14 3c
       0.08148082 -0.06146097 -0.035423208 0.009072022
000160 ac 59 f6 3c 8b 3f 96 3d d0 68 1f ba 84 67 8a bd
       0.030072056 0.073363386 -0.0006080987 -0.06758025
000170 4d 59 91 bd 67 3e 92 bd 40 32 b2 bd 8b 83 70 bd
       -0.07097111 -0.071408086 -0.08700991 -0.0587192
000180 75 76 a1 3d 15 6c 11 3c 37 0d a3 bd 54 c0 8d 3d
       0.07883922 0.008875866 -0.07961505 0.06921449
000190 63 a6 df 3c c1 4a 85 3d 2f 7b 3e bd 00 f4 8d ba
       0.027301019 0.06508399 -0.046504196 -0.0010830164
0001a0 fe 6a c5 3b 25 89 bb 3d 7a cc 5e 3b 3a 7e 97 3d
       0.0060247174 0.091570176 0.003399639 0.07397123
0001b0 73 da 3c bd 1f c6 3a bd dc 97 00 bc bc 76 a7 bd
       -0.046106767 -0.0455991 -0.007848706 -0.08176944
0001c0 3e 8c ec bc 19 30 2d 3d d2 c0 47 bd f8 19 40 bd
       -0.028875466 0.042282198 -0.048767872 -0.046899766
0001d0 9f bd 9c 3d bb 5e b6 bc f3 9b 54 3d 52 05 ae bd
       0.07653355 -0.022261968 0.051906537 -0.084971085
0001e0 f8 df 3d 3d 29 2f 5f 3d 58 f5 8c 3d 5e 2c a0 3d
       0.04635617 0.054488335 0.06882733 0.07820962
0001f0 bf d6 98 3d 8a 31 9b bd 25 2f d7 bc 0b 86 71 3d
       0.074628346 -0.07577808 -0.026267597 0.058965724
000200 14 72 f2 bc e7 06 42 3d 7c 0a c4 3c ab 9a b8 bd
       -0.029595412 0.047369864 0.02393078 -0.090138756
000210 f0 75 98 3c e4 41 98 3d 4f 89 2b bd 56 62 b0 3d
       0.018610924 0.07434443 -0.041878995 0.08612506
000220 a4 ff ef 3c 7f 82 0a bd 11 fe 8e 3d ab fe 95 bc
       0.029296704 -0.033815857 0.06982053 -0.018309912
000230 a8 d1 3f 3c 1c a0 70 3d 3d e7 b8 3d 1d 95 22 3c
       0.011707701 0.058746442 0.0902848 0.009923247
000240 f3 6b ac bd a0 b2 a2 3d 53 1d a3 ba 6d b1 8b 3d
       -0.08419027 0.07944226 -0.0012444652 0.06820951
000250 db cf 8c 3d 11 d9 4d 3d 62 b3 aa bc fb f8 cf 3b
       0.06875583 0.05025584 -0.02083749 0.0063468195
000260 13 c4 a0 bd 4a 7b a6 bd 17 af 6d bc fb 4a 56 bd
       -0.07849898 -0.08128984 -0.014507077 -0.0523176
000270 9e fe 48 bb 00 be a4 3d 81 11 af 3d 7e e2 a0 3c
       -0.0030669342 0.08044052 0.085482605 0.01963925
000280 cf 06 00 bd 5d e0 7d bd e2 f5 b8 bd 7c 3e 7d bd
       -0.031256493 -0.061981548 -0.090312734 -0.061827168
000290 80 66 8b 3c ed b9 ae 3c 6e 8a 5f 3d 79 da ad 3c
       0.01701665 0.02132889 0.054575376 0.02122234
0002a0 ab 38 0c 3d b7 43 a2 bd 38 95 f0 bc 12 dc cb 3d
       0.03423373 -0.07923072 -0.029368028 0.099540845
0002b0 6f 7b 69 3d 91 19 f2 3c 79 f2 0b 3d 13 be b6 3d
       0.05700248 0.029553207 0.034166787 0.089229725
0002c0 56 86 8f bc 97 2a 48 bd 5d 4d 82 3c 4e 4f 41 3d
       -0.017520111 -0.04886874 0.01590603 0.04719477
0002d0 90 66 3c 3d 5c fb ac 3b 69 89 9c bb 4a 13 76 3d
       0.04599625 0.005278988 -0.0047771228 0.06007699
0002e0 9a 44 6b 3d cc 2b d8 bc 5f 27 93 bd 72 13 a2 bd
       0.05743847 -0.026388071 -0.07185244 -0.07913865
0002f0 46 e1 12 bd ec f6 49 bd be 9c c3 bd 8a a7 c9 bd
       -0.03585937 -0.04930775 -0.095513806 -0.09846409
000300 6b cb 01 bc 4a 8e 32 3c 6f 3f f5 ba 16 4f e7 bc
       -0.007922034 0.010898182 -0.0018710921 -0.028235953
000310 ec 9c 19 bd da 41 0f bd 73 e4 c4 3c dd c1 22 bc
       -0.037503168 -0.03497491 0.024034714 -0.009933916
000320 f6 04 44 3d 1d c7 ae bd d8 31 31 3d 5c 23 99 3c
       0.047856294 -0.085340716 0.043260425 0.018693618
000330 ba 10 a3 bc 60 61 6b bd 73 fa 6a 3d 26 54 18 3d
       -0.019905437 -0.05746591 0.057367753 0.037189625
000340 fa db af bd fc 77 a3 bd 15 46 82 3d c7 ec e5 bc
       -0.08586879 -0.079818696 0.06361023 -0.028067006
000350 56 62 9e bd 9b db 8d 3c f3 b8 92 3d d6 bb b4 3d
       -0.077336 0.01731663 0.071641825 0.08824889
000360 00 93 b1 3d 57 d0 b7 bc 17 fb de 3d b0 49 59 bd
       0.08670616 -0.022438211 0.10887735 -0.05304879
000370 24 b4 df bc c8 f2 68 bd e9 d3 e2 3b c5 d8 16 bb
       -0.027307577 -0.05687216 0.0069222343 -0.0023017388
000380 89 d1 99 3c d5 d6 39 bc ad a3 3f bd 46 0b 0a bd
       0.018776672 -0.011342724 -0.046786953 -0.033702157
000390 50 53 9f bd bd fd 39 3d 74 72 d0 bd c8 cf 90 bd
       -0.077795625 0.045408 -0.1017808 -0.07070881
0003a0 1e 73 d3 3d b7 97 8f 3d 60 22 62 bd 56 38 a0 bc
       0.10324691 0.07011359 -0.055208564 -0.019558113
0003b0 ab 11 e0 3c 9b b0 84 bd 89 41 6f 3d 41 bd e5 bc
       0.027352175 -0.06478997 0.05841211 -0.028044345
0003c0 09 69 ca bc 2b 50 bb 3c 98 11 92 bd 23 a0 b6 3d
       -0.024708288 0.022865376 -0.07132262 0.089172624
0003d0 04 fe af 3d 65 c5 88 ba 00 65 cc bb c9 bd 82 3d
       0.085933715 -0.0010434805 -0.006237626 0.06383855
0003e0 24 dc 1f 3d 2e b1 c4 3d df ef 59 3d e5 fa 53 3d
       0.0390283 0.09604107 0.053207275 0.051752944
0003f0 f1 c0 7b 3d c5 0d 62 3d b9 ca 91 bb ab 06 a0 bc
       0.0614633 0.055188913 -0.0044492153 -0.01953443

backbone.classifier.0.bias f4 [84]
000000 f8 37 3f bd 43 90 e5 bc de 34 ff 3c ab e9 9a 3c
       -0.046684235 -0.02802289 0.031153139 0.01891025
000010 09 e2 15 bb fc 1b 9d 3b 61 15 17 3c a3 1c 0a bd
       -0.0022870323 0.0047945958 0.009221406 -0.033718716
000020 55 bc a3 3c 9f 37 9d 3d 97 d0 4e bd 57 99 51 bd
       0.019987265 0.076766245 -0.050491896 -0.051171627
000030 13 5a d3 bc b4 c1 73 bd c6 cf 9d 3d 85 90 a8 bd
       -0.025799787 -0.0595109 0.07705645 -0.0823069
000040 e7 09 d5 3c 7c 14 af 3d 79 3f 43 bd 0b 3c 8d 3d
       0.026005698 0.08548829 -0.047667954 0.06896218
000050 66 ed a3 bd 87 eb 2e 3d 9a bd 1c 3d 33 1c 09 3d
       -0.080042645 0.042705085 0.038266756 0.03347416
000060 f5 ce 6d bd 0e 3a 3a 3a 20 c6 aa 3d aa ac 90 3d
       -0.058058698 0.0007103988 0.083385706 0.07064183
000070 1c ac a8 3d 40 33 80 bc 71 6d 77 3c 9d 14 12 bd
       0.08235952 -0.015649438 0.015101776 -0.03566419
000080 25 45 6b 3a da 4e 8b 3d 0c 61 1b 3d 77 6f 40 bd
       0.0008974842 0.06802149 0.037934348 -0.0469813
000090 bd 03 7a 3b fe c6 9e 3d 08 61 9a 3c 6f 74 51 3d
       0.00381492 0.077527985 0.018845096 0.05113643
0000a0 44 c0 f7 bb 65 25 47 3d 8f 95 b8 bc c4 8f 60 bd
       -0.0075607616 0.048619647 -0.022532253 -0.054824606
0000b0 aa f7 a3 bd a0 aa 85 3c 95 4b 91 bd a2 e6 78 3c
       -0.080062225 0.016316712 -0.07094494 0.015191706
0000c0 e0 e6 0e bd d9 47 04 3d 9d 39 ae bc 61 e8 9c bd
       -0.03488815 0.03229508 -0.021267707 -0.0766151
0000d0 cc bf 34 bd ec 7d dd bc 16 6b 9d bb bd e5 26 bd
       -0.044128224 -0.027037583 -0.0048040254 -0.04074644
0000e0 14 a5 2f 3d be 4f ac bd c9 2d e3 bc 78 c5 97 3d
       0.04288204 -0.08413647 -0.027731793 0.07410711
0000f0 28 27 4d 3d 9e f9 ed bb 87 89 03 3d c7 30 5c 3d
       0.05008617 -0.0072624227 0.03211358 0.053757455
000100 23 9f 7d bc 6f 50 51 bd 18 f3 59 bd 2c 80 6b 3c
       -0.015479836 -0.051102098 -0.053210348 0.01437382
000110 d0 a6 47 3d f7 b1 37 ba 81 25 34 bc e2 67 ea 3b
       0.04874307 -0.0007007415 -0.01099527 0.007153497
000120 d2 54 7d 3d f6 93 01 3b ed 48 dc 3c 88 71 51 3d
       0.06184847 0.001977203 0.026890242 0.051133662
000130 2c df 9f bd cb 14 17 bd 46 9d 01 bd 21 01 ff bc
       -0.078062385 -0.036885064 -0.03164413 -0.031128468
000140 0a d8 f9 3b 1b ff bb 3c 9a 4b 4d bd f0 5c ac bd
       0.007624631 0.022948792 -0.050120927 -0.08416164

backbone.classifier.2.weight f4 [10, 84]
000000 b4 66 11 be f3 49 59 3d c6 8b b4 bd ad 2e a4 bd
       -0.14199334 0.05304904 -0.08815722 -0.08016715
000010 98 62 27 3d d5 0e 2d 3e 4a 82 fb 3d 0a 15 0c 3d
       0.04086551 0.16900189 0.1228071 0.034199752
000020 df 15 e5 3d b6 bc 8c bd 6a 2b 8f bd 1f 8f 0b 3e
       0.11185812 -0.06871931 -0.069907025 0.13628815
000030 ce 1d 2a bd 0c 17 aa 3d be bf cb 3d 93 71 e3 bc
       -0.04153233 0.08305177 0.09948681 -0.027764117
000040 02 ec 97 3d 49 f7 05 3e 5d f8 18 3e 06 d1 11 be
       0.07418062 0.13082613 0.14938493 -0.14239892
000050 1e 1b 78 3d 1e bf de 3d 4e c5 10 3e bc 74 7f 3c
       0.060572736 0.108762965 0.14137766 0.0155917965
000060 1d ba 00 be 0b 28 ca 3c 16 13 61 3d 12 99 46 be
       -0.12570997 0.024677297 0.054949842 -0.19394329
000070 7a 62 1d bd 3c ef 0e be e4 c0 08 3e 45 b9 28 3e
       -0.038423993 -0.13958448 0.13354832 0.16476925
000080 a3 f6 40 3d 06 54 00 3e 26 82 41 3e e1 9e 3a be
       0.04711021 0.12532052 0.18897304 -0.1822467
000090 a9 39 d0 3d 33 59 1b be 25 be 86 bd 25 f5 f9 bc
       0.10167248 -0.15170746 -0.06579236 -0.030512402
0000a0 94 4f 61 bd ba 17 b0 3d 75 8e 70 bd 31 57 f3 bc
       -0.055007532 0.085982755 -0.058729608 -0.029704662
0000b0 02 30 d2 bd e2 8b 4c 3d 7e 24 12 be 14 5b be 3d
       -0.10263063 0.04993809 -0.14271733 0.092947155
0000c0 f1 fd e3 3d f1 39 e2 bd 3e 7e 40 be 7a 03 d1 bd
       0.1113242 -0.11046208 -0.18798158 -0.10205741
0000d0 18 fa 2b be 6b 8f 08 3d d1 30 23 bd 46 33 e8 3b
       -0.16794622 0.0333399 -0.039841477 0.0070861904
0000e0 e0 10 91 3d 2f ca 46 3d ae 02 3b be 7f 54 d8 bd
       0.07083297 0.04853266 -0.18262741 -0.10562991
0000f0 54 f6 73 bc ed 5c 15 3d 66 6d f0 3d 27 9e 03 be
       -0.014890272 0.036465574 0.11739616 -0.12853299
000100 34 d2 78 bd b3 ee 07 3e da c4 db 3d c6 22 62 bd
       -0.06074734 0.1327465 0.10730906 -0.055208944
000110 91 24 95 bd ab 60 ae bd af 16 91 bd 02 96 06 bd
       -0.07282365 -0.08514532 -0.07084405 -0.032857902
000120 dc c0 4d 3d 11 16 d3 3d 7b db 7a 3d 32 33 14 be
       0.050232753 0.10306943 0.06124447 -0.14472654
000130 17 e2 0d 3e de 6f 4b 3d f8 14 4f 3d 84 fd 55 3b
       0.13855778 0.04966723 0.050557107 0.0032652328
000140 cc db 63 3d 56 50 09 3d cb b4 e6 3d 59 d1 08 be
       0.055629537 0.03352388 0.11264952 -0.1336111
000150 c3 35 ca bc 5c bb cc 3d f7 88 1b be 05 91 76 bd
       -0.024683839 0.099966735 -0.15188967 -0.060196895
000160 03 5b c9 3d b2 77 e9 bd 3c ef 81 bd 13 05 39 be
       0.09831812 -0.11399783 -0.063444585 -0.18068342
000170 80 2d 81 3d f1 cc 8d 3d ba 4d 1e bc 10 32 a0 3a
       0.063075066 0.06923855 -0.009662086 0.0012221951
000180 c3 7c 3e be 7a 42 c5 3d 2f e6 c0 bd 61 4c e2 bd
       -0.1860228 0.0963182 -0.09418904 -0.11049724
000190 03 b0 b6 bd 36 d3 ea 3c fb 01 0a be 94 73 02 3e
       -0.0892029 0.028665166 -0.13477318 0.12739402
0001a0 25 df cd 3d aa ea 48 be 3c e3 4f bd 32 ec f4 3d
       0.10052327 -0.19620767 -0.050753817 0.11959113
0001b0 5c 7d 89 3d e4 ef d8 3d 91 44 57 bc 62 63 a5 3d
       0.067133635 0.105926305 -0.013138906 0.080755964
0001c0 31 a1 32 bc 8c bb 6e 3d 16 3a 8a 3d 79 a3 a6 3d
       -0.010902689 0.058284327 0.0674936 0.08136649
0001d0 d8 a9 e2 bd 3e 55 da 3c cf 7b fd bd 22 0c 82 3d
       -0.110675514 0.026651975 -0.1237713 0.063499704
0001e0 2a 6d b6 bd 20 93 ee 3d ef 41 84 3c 55 f4 f2 3d
       -0.0890754 0.116491556 0.01614472 0.11863009
0001f0 4d 8b cf bd 82 ee 30 be 9f 33 b6 3c 50 18 bf bd
       -0.101339914 -0.17278484 0.022241412 -0.09330809
000200 0e fd 9c 3d a5 f7 a8 3c 48 f4 6b bd ef 88 1b bd
       0.07665454 0.020625899 -0.05760601 -0.037972387
000210 f4 63 db bc 93 d2 02 3e 2f d6 14 bd 56 df 0e be
       -0.02678106 0.1277564 -0.036337074 -0.13952383
000220 47 d6 9b 3d 89 82 cd 3c 89 68 c4 bd 21 30 36 3e
       0.076092295 0.025086658 -0.09590251 0.17791797
000230 39 eb f6 3d 09 45 87 3d 5d ea 89 3c f0 14 98 bd
       0.12056584 0.06604964 0.016835386 -0.074258685
000240 28 c4 72 bd 93 3a 27 3e c3 21 18 3e c0 e7 66 3d
       -0.0592691 0.16330938 0.14856629 0.056373358
000250 9f 9d 28 3e 1a 15 35 bd 89 4a 11 be 7f 06 83 3d
       0.16466378 -0.044209577 -0.14188589 0.063977234
000260 8b 5d af bd d2 bc 1a 3e 6b b9 7e 3b bf 88 ef 3d
       -0.08562764 0.15111092 0.0038867842 0.11696004
000270 b2 7e 17 3e 13 51 9f 3d 65 d2 ab 3d 36 95 67 3d
       0.14794424 0.077791356 0.08389739 0.056538783
000280 52 78 9b bd 2a 9d 04 be f3 dc da 3a f1 2a 54 be
       -0.07591309 -0.12950578 0.0016697928 -0.20719506
000290 e3 c2 ca 3c 9e 60 20 bd a7 eb 5b 3c 3c ce 07 3e
       0.024751132 -0.03915464 0.013422883 0.13262266
0002a0 40 63 61 3c a8 e2 5a bd 1f 38 9f 3d 43 75 e1 bd
       0.013756573 -0.053438812 0.07774376 -0.11008694
0002b0 4c ba f1 3d 8d 6e cf 3d 5f 12 c6 bd f6 be ef bc
       0.118031114 0.10128508 -0.09671473 -0.029265862
0002c0 a2 4e cf bd 94 82 0a 3e 0b 30 9d 3d b7 d6 42 3d
       -0.1012242 0.13526374 0.07675179 0.04756805
0002d0 a2 22 08 bd 48 75 16 bc 77 55 0a 3d b0 2a cd bd
       -0.033236153 -0.0091832355 0.033772912 -0.100179076
0002e0 b9 c2 8b 3d 43 d9 2a 3b f9 41 fe bb 97 f9 03 3d
       0.0682425 0.002606944 -0.0077593294 0.03222045
0002f0 c2 d5 74 3d 40 c1 00 3c fe 14 67 3d 2a ba f6 bd
       0.059774168 0.007858574 0.056416504 -0.12047227
000300 8e 71 c3 bd b7 b2 ff bb 4f b6 ef 3d c6 37 f5 3d
       -0.09543143 -0.007803287 0.117046945 0.119735286
000310 29 fd f4 3d 45 e7 92 bd f3 f9 2b 3e 74 7d 36 3d
       0.11962349 -0.071730174 0.16794567 0.044553235
000320 f8 8e f7 bd b1 7a 94 bd ac 30 a5 bd ef b5 a0 3d
       -0.12087816 -0.07249964 -0.08065924 0.07847201
000330 f4 79 36 bd 1c 7c 2c be db c5 f6 bd 45 72 c9 bd
       -0.044549897 -0.16844219 -0.12049457 -0.09836248
000340 d5 da 8f 3d 66 3d 35 3d 22 cd b0 3d 28 0b 00 3d
       0.07024161 0.044248007 0.08632876 0.03126064
000350 8b 29 22 3d 9f ec 93 bd 60 cf 57 3d a7 0f 09 3e
       0.0395904 -0.07222866 0.052688003 0.13384877
000360 ad a9 ba bd 7c 10 93 3d 56 fd de bc c8 f7 3c 3c
       -0.09114394 0.071808785 -0.02722041 0.011533685
000370 c5 9c fa 3d 10 e5 a7 bd d9 0d 0f be 2e 58 c3 3d
       0.12236933 -0.08197987 -0.13970126 0.09538303
000380 da c5 1c be 18 ce 9b 3d e1 8d c3 3c 04 c4 72 3d
       -0.1530985 0.07607669 0.023871364 0.059268966
000390 45 b7 74 3d ac e0 b8 3d 60 52 73 bc 44 77 81 3d
       0.059745092 0.09027228 -0.014851183 0.06321576
0003a0 8b c3 c5 3d 75 d2 24 3d 07 fc 92 3b 56 bb 03 be
       0.096564375 0.04023977 0.0044856104 -0.12864432
0003b0 05 a8 0a be 61 2c ba 3d cb 3d 17 be ec ff 8d bd
       -0.13540657 0.09090496 -0.14769666 -0.06933579
0003c0 d9 b5 5a 3d 43 a1 09 3e 51 48 03 3d 53 d8 ec bd
       0.05339608 0.13440423 0.03205139 -0.11564698
0003d0 ce d4 d0 bd b0 1c ed 3d 26 ab 07 3d 20 32 bd bd
       -0.10196839 0.11577737 0.033122204 -0.09238076
0003e0 e8 7d c8 bd 7e 50 b0 3c 39 13 bc 3d c3 5d 37 be
       -0.0978964 0.021522757 0.09183354 -0.17906861
0003f0 a9 72 56 3d a6 5f 1d 3e 26 3d f2 bd e5 2a e1 3d
       0.052355442 0.15368518 -0.118280694 0.109945096

backbone.classifier.2.bias f4 [10]
000000 a5 f8 e8 3c 6c 19 7e bb f5 e7 f9 3c 73 d8 3e bd
       0.028438875 -0.0038772477 0.030506114 -0.04659314
000010 de c4 2b bd 30 3f 8f 3d 5f 54 07 3d 68 48 ad 3c
       -0.041935794 0.06994474 0.033039447 0.02115269
000020 11 38 24 bd 8a d3 73 bd
       -0.04009253 -0.05952791

momentum_buffer f4 [6, 1, 5, 5]
000000 75 1d d1 3c 18 88 3b 3d 63 af 7b 3d ca 48 9d 3d
       0.025526742 0.045784086 0.06144656 0.07679899
000010 95 3b c4 3d 21 81 d3 3b 51 a1 27 3d e4 1b 95 3d
       0.09581677 0.0064546023 0.040925328 0.0728071
000020 6a e7 c7 3d ae d1 e9 3d 49 4b 13 bc 41 58 04 3d
       0.097609356 0.11416946 -0.008990117 0.032310728
000030 fb 44 8d 3d 4e f1 bf 3d 64 ec d3 3d 5c bd b2 bc
       0.068979226 0.09372197 0.10347822 -0.02181881
000040 c7 0d 49 3c de 37 1f 3d eb 8e 51 3d 7b 8d 65 3d
       0.012271351 0.03887164 0.051161688 0.05604313
000050 99 3b 20 bd b0 cf a3 bc fe c9 20 bc a0 3d 55 bc
       -0.039119337 -0.019996494 -0.009813784 -0.013015181
000060 c1 0f 6e bc e2 38 e8 3c 80 4d bb 38 8c 17 47 bc
       -0.014530123 0.028347436 8.93129e-05 -0.01215161
000070 9c e5 e0 bc 51 3e 44 bd 24 0b 65 bd 99 21 b4 bd
       -0.027453236 -0.047910992 -0.055918828 -0.08795471
000080 18 db c4 bd b3 96 cd bd 23 fb d3 bd de 04 c8 bd
       -0.09612101 -0.10038509 -0.10350635 -0.09766553
000090 ae 7c ff bd 58 8f 00 be 77 3f eb bd d8 0f b8 bd
       -0.12474953 -0.12554681 -0.11486714 -0.08987397
0000a0 53 b0 d0 bd 65 a9 f2 bd 9a fa dc bd fc 81 98 bd
       -0.10189881 -0.11848716 -0.10789986 -0.074466676
0000b0 64 4e 9f bc 2c 24 80 bd 4f 29 82 bd e7 e3 08 bd
       -0.01944656 -0.06256899 -0.06355535 -0.03342047
0000c0 f4 7a bd 3c 7e 5e bd 3d a5 fd 03 3e c6 31 c8 3d
       0.023129918 0.092465386 0.12889726 0.097751185
0000d0 b4 2c 6a 3d 5c ed a2 3c 60 67 04 3c e5 35 ba 3c
       0.05717154 0.019888572 0.008081287 0.022730777
0000e0 f3 d6 a9 bc 3c e1 82 bd 5d 3d ca bd 53 fd cd bd
       -0.020732379 -0.06390616 -0.09874985 -0.100580834
0000f0 f4 bf 78 bd 0c 47 cd bd 1b a0 00 be 90 95 14 be
       -0.060729936 -0.10023317 -0.12561075 -0.14510179
000100 d2 29 07 be fc ce b8 bd 07 df ef bd 3c 5f f3 bd
       -0.13199547 -0.09023854 -0.11712461 -0.11883399
000110 9b 32 e8 bd de b3 aa bd 57 c4 9d bd 1b ed bc bd
       -0.11337777 -0.08335088 -0.077034645 -0.09224912
000120 bf 24 97 bd af c3 24 bd dd a5 d8 3b a6 ba d3 bd
       -0.07380056 -0.04022568 0.0066115693 -0.10338335
000130 08 5f e0 bd 5c 39 e1 bd 89 11 e5 bd 47 3a ff bd
       -0.10955626 -0.109972686 -0.11184985 -0.124622874
000140 67 87 ce bc 2a 62 c5 bc 86 f3 91 bc 0d 1f 95 bc
       -0.02521105 -0.02409466 -0.017816316 -0.018203283
000150 46 10 02 bd 56 26 1b 3d e5 ea 1f 3d a8 5c 34 3d
       -0.0317538 0.037878357 0.039042372 0.044033676
000160 58 d2 23 3d c4 1a da 3c c8 38 97 3d d4 9e 87 3d
       0.03999552 0.026624091 0.07383877 0.06622091
000170 ff 8b 88 3d 40 87 7e 3d c0 8b 5c 3d 66 70 af 3d
       0.06667327 0.062140703 0.053844213 0.0856636
000180 aa 90 93 3d 32 ee 8b 3d 17 c9 8d 3d 1a 31 91 3d
       0.07205327 0.068325415 0.069231205 0.070894435
000190 1a ab 7c 3d 62 20 c2 3d ae c2 04 3e e5 21 0a 3e
       0.061686613 0.09478833 0.1296489 0.13489492
0001a0 05 92 a7 3d 18 14 f1 3d 49 38 07 3e 23 7a 0f 3e
       0.08182148 0.11771411 0.13205065 0.14011435
0001b0 c0 5f ee 3d 1e 74 53 3d 7b 2a 00 3e d2 62 ff 3d
       0.116393566 0.05162441 0.12516205 0.1247002
0001c0 08 c6 cf 3d 35 8b 31 3d 5b a1 f9 bc 01 16 8d 3d
       0.10145193 0.04334565 -0.030472448 0.068889625
0001d0 92 a5 46 3d 23 10 92 bb 07 4e a5 bd 97 1e 1d be
       0.048497744 -0.00445749 -0.08071523 -0.153437
0001e0 d4 47 40 bd f1 ba b7 bd f6 69 1f be c5 48 65 be
       -0.0469435 -0.08971203 -0.15567765 -0.2239104
0001f0 8c 6d 8e be 2f a5 89 bd ac e2 57 bd 26 de 41 bd
       -0.27817953 -0.067209594 -0.052706406 -0.047330998
000200 b4 cf 39 bd fa 5d 25 bd 8a f6 23 bd 5d b9 06 bc
       -0.045364097 -0.040372826 -0.04003004 -0.008222905
000210 9b 86 1d 3c ab 08 58 3c 91 08 88 3c a3 43 16 bc
       0.009614612 0.01318566 0.016605647 -0.009171399
000220 53 9e 13 3d df f6 7c 3d 5d 6b 87 3d fa bf 8c 3d
       0.03603966 0.061758872 0.06612275 0.06872554
000230 f4 88 f8 3c d2 6d a9 3d f0 df e2 3d 1e e8 e4 3d
       0.030338742 0.082729 0.11077869 0.11177085
000240 98 53 dc 3d 12 fb a5 3d cd 74 06 3e 50 dc 18 3e
       0.10758132 0.081045285 0.13130493 0.14927793
000250 25 b5 0c 3e ef 94 f9 3d
       0.13740976 0.1218661

momentum_buffer f4 [6]
000000 97 4c 8b bd 30 44 49 3e a9 52 26 3e ab 10 af bd
       -0.06801718 0.19654918 0.1624247 -0.08548101
000010 c1 7b 84 be 12 0f 0d bb
       -0.25875667 -0.0021523875
